model.pth (torch, 253119 bytes, 10 tensors)

weight f4 [6, 1, 5, 5]
-0.12432434 0.105140775 -0.14648242 -0.16908698 0.019030796 -0.10377362 0.20730613 0.16439366
0.035413623 -0.028636662 0.1673953 0.09263356 0.27518275 0.12512033 0.21621992 0.0050125318
-0.20034371 -0.1269719 0.28814843 0.5381313 -0.30139044 -0.13717368 -0.10777909 0.28122193
0.495942 0.044161964 0.12177784 -0.0022930012 -0.0034767208 -0.016072739 -0.058119327 -0.019819152
-0.2070955 -0.28635392 -0.12739159 -0.3236813 -0.33485347 -0.002039327 -0.14838979 -0.12273951
0.17494819 0.07243504 0.33631757 0.28809988 0.10185513 0.41094217 0.10568987 -0.083431244
0.118584394 0.08265376 -0.1707792 -0.2437094 -0.16652517 -0.2265171 0.30870575 -0.10402603
-0.36274812 -0.26061723 -0.06447738 0.35615465 -0.15300706 -0.15537445 -0.042590164 0.251346
0.42953148 0.34028032 0.14889872 0.53407514 0.6111988 0.53458583 0.48585105 0.5796498
0.6702406 0.50684714 0.123266235 -0.030892573 0.39727554 0.32526898 -0.10595784 -0.21564355
0.07598138 0.25879997 0.50039667 0.31477377 -0.1521566 -0.119191684 0.24899843 0.39056194
0.13239092 -0.10339885 -0.26153785 -0.1108989 0.3579236 0.19455017 0.21061689 -0.2008121
-0.0043891026 0.37967288 0.4717794 0.35950512 -0.02867906 -0.15099473 0.14641057 0.338457
0.29170966 -0.18230236 0.10942149 -0.15196492 0.31535873 0.43734494 -0.31211278 -0.2245842
-0.14267379 0.08677497 0.2721205 -0.25354725 -0.09745369 0.017356448 0.08739803 0.029958362
-0.17157744 0.047431104 -0.10174153 0.16090257 -0.057483368 -0.024632482 0.1131495 -0.16879055
-0.05341504 0.10630832 -0.15560196 -0.015893059 -0.17644763 0.030264985 -0.13983211 -0.11419684
-0.15932678 -0.0036850793 -0.19807912 -0.13755511 0.15710638 -0.0068844 0.18159014 -0.14701784
0.11961841 0.06072327 -0.10739039 -0.19200306 -0.09848022 -0.004519008
00000000: c29d febd 0c54 d73d 7dff 15be 2325 2dbe
00000010: 79e6 9b3c 4487 d4bd 0f48 543e d056 283e
00000020: e00d 113d 6f97 eabc ac69 2b3e aab6 bd3d
00000030: c1e4 8c3e 8b1f 003e c168 5d3e 2a40 a43b
00000040: e726 4dbe ec04 02be 3188 933e f9c2 093f
00000050: d94f 9abe 4277 0cbe 49bb dcbd 52fc 8f3e
00000060: 1cec fd3e 2de3 343d a966 f93d 2d46 16bb
00000070: b2d9 63bb faaa 83bc 880e 6ebd c65b a2bc
00000080: d810 54be fb9c 92be f172 02be 8eb9 a5be
00000090: ea71 abbe 3ba6 05bb 7ef3 17be da5e fbbd
000000a0: 9e25 333e d258 943d d131 ac3e d481 933e
000000b0: 6c99 d03d 0367 d23e ee73 d83d 00de aabd
000000c0: 60dc f23d 6046 a93d bee0 2ebe f58e 79be
000000d0: 9385 2abe 19f4 67be ae0e 9e3e 990b d5bd
000000e0: 1fba b9be 9f6f 85be b70c 84bd e759 b63e
000000f0: e2ad 1cbe 7b1a 1fbe 0673 2ebd 6cb0 803e
00000100: 8deb db3e 3939 ae3e e878 183e 26b9 083f
00000110: 8677 1c3f 9eda 083f 78c1 f83e ee63 143f
00000120: e394 2b3f bcc0 013f 0273 fc3d 6c12 fdbc
00000130: b367 cb3e a889 a63e 6d00 d9bd aad1 5cbe
00000140: 209c 9b3d 6e81 843e ff19 003f 072a a13e
00000150: f1ce 1bbe c51a f4bd 72f9 7e3e bcf7 c73e
00000160: 7c91 073e c7c2 d3bd 4ae8 85be f61e e3bd
00000170: c341 b73e 2938 473e f4ab 573e b0a1 4dbe
00000180: 76d2 8fbb 7c64 c23e 128d f13e 0e11 b83e
00000190: 59f0 eabc 5d9e 1abe a7ec 153e 3c4a ad3e
000001a0: f85a 953e 78ad 3abe 6018 e03d b19c 1bbe
000001b0: b376 a13e adeb df3e 3fcd 9fbe 67f9 65be
000001c0: 1419 12be 13b7 b13d 6153 8b3e f2d0 81be
000001d0: cd95 c7bd 1c2f 8e3c bdfd b23d 3d6b f53c
000001e0: ffb1 2fbe 1e47 423d dd5d d0bd a5c3 243e
000001f0: ae73 6bbd 0fca c9bc edba e73d 6ed7 2cbe
00000200: bbc9 5abd 2db8 d93d 1f56 1fbe 2932 82bc
00000210: b0ae 34be 46ee f73c 2630 0fbe 08e0 e9bd
00000220: 8f26 23be 5f81 71bb 41d5 4abe 3fdb 0cbe
00000230: 7fe0 203e 8896 e1bb c4f2 393e d88b 16be
00000240: 7ffa f43d f7b8 783d 7eef dbbd 739c 44be
00000250: ffaf c9bd 3014 94bb

bias f4 [6]
0.20289753 0.02347792 0.2046787 0.24558766 0.00089984824 -0.12944977
00000000: 5fc4 4f3e c454 c03c 4b97 513e 557b 7b3e
00000010: cbe3 6b3a 7b8e 04be

weight f4 [16, 6, 5, 5]
-0.06889027 -0.056584217 -0.04653968 -0.057841614 -0.015489574 0.0702293 0.04126836 0.075232886
-0.03551238 -0.11595287 -0.020148488 0.063162245 0.03974374 0.07030069 0.09933559 -0.002761757
-0.13773939 -0.06721781 -0.036120564 0.016314998 0.07688788 0.049474757 0.023772994 0.011472844
-0.010047574 0.015078912 0.05423321 0.07973776 0.053871542 0.05567994 0.07286188 0.07859079
0.14864041 0.083365776 0.14603943 0.036710463 -0.03560866 0.073557615 0.10093625 -0.005918672
0.074129015 -0.023513358 0.06646571 -0.02199268 0.021016605 -0.0027543183 -0.036275078 -0.040956464
-0.05323481 -0.023984155 0.014143001 0.09593815 0.023847608 -0.009075053 -0.017873757 -0.031618763
0.12139114 0.15186763 0.12380032 0.0067722816 -0.17301373 -0.08309636 0.10936086 0.09515408
0.045315493 -0.1791437 -0.13578808 -0.17261434 -0.076801434 -3.898084e-05 -0.03067101 0.04445451
0.12908283 0.077159844 -0.0125110075 0.0432692 -0.06748283 -0.10257994 -0.15186015 -0.12783504
0.006264347 0.08704193 -0.045767277 0.056985937 0.04110277 0.06497246 0.117200285 -0.027332177
0.006227451 0.08073691 0.017805986 0.01760137 -0.038345557 -0.035309535 0.115733415 -0.072600864
-0.052368738 -0.07724798 -0.06701334 -0.10603068 0.00036247575 0.04786003 -0.009296473 -0.028266173
0.021933071 -0.054111477 -0.12430326 -0.009913682 -0.03832381 -0.08925088 -0.0020341913 0.05518394
-0.012927004 -0.0068455855 -0.07250978 0.076124705 0.109005906 0.11318794 0.034449212 0.043199185
-0.04187421 -0.09954188 -0.12213634 -0.040015027 -0.047813233 0.0358325 -0.0819039 -0.077969305
0.0050873095 -0.0539396 -0.0058021024 0.0783774 -0.022327904 -0.0040050955 -0.013325273 -0.006601242
-0.065450415 0.017313484 -0.0815784 -0.019620273 0.015064312 0.019913474 -0.0049838354 0.045907315
0.04921555 -0.028228082 0.06062346 0.0025567983 0.054650612 -0.019179912 0.023969224 0.1214204
-0.05775133 -0.036810923 0.01870633 0.1480077 0.0068871905 -0.10750433 -0.009124648 -0.022577073
0.1971232 -0.02414216 -0.10423318 0.064880684 -0.030052265 0.16849464 -0.08246173 0.014133965
0.011787205 -0.021462578 0.07415625 0.0005917604 0.039037373 0.051611714 -0.09101048 0.03157582
-0.00906257 -0.013981465 0.07482627 0.054461267 -0.019942684 0.043778043 0.0026393477 0.046176977
0.06345011 -0.08468246 0.009059344 -0.11900359 0.042333268 0.03555027 -0.13033897 -0.052680872
-0.06924539 -0.044793762 0.078326605 -0.11292742 -0.10035282 0.037095282 0.073208675 0.013334426
-0.0013700878 0.11461101 0.04894041 0.083335154 0.03176029 0.05718247 0.03334422 -0.05290611
-0.06008165 -0.07726401 0.09620036 0.035395443 -0.206045 -0.15699795 -0.058527526 0.14735
-0.054077666 -0.23471509 -0.06104679 -0.049820453 -0.0063743563 -0.11535495 0.009361685 -0.006816822
-0.07787906 0.00043856786 0.058127306 -0.07703257 0.0034231602 -0.07350342 0.017009197 0.02854346
-0.026779989 -0.0066250446 -0.008400556 0.09845634 0.20502388 -0.08489305 -0.117555946 -0.043855097
-0.0013042815 0.13861617 -0.029973365 -0.12836958 0.05576008 0.065479316 0.15581797 0.028820768
-0.07042428 -0.04308792 -0.034225997 -0.08314602 0.022226518 0.050880015 -0.1102476 -0.010105792
00000000: 5816 8dbd dac4 67bd 64a0 3ebd 54eb 6cbd
00000010: fbc7 7dbc 61d4 8f3d 0309 293d b313 9a3d
00000020: 6e75 11bd b378 edbd 710e a5bc 355b 813d
00000030: 55ca 223d cff9 8f3d 7570 cb3d 98fe 34bb
00000040: 8e0b 0dbe 7ea9 89bd 28f3 13bd 08a7 853c
00000050: 6577 9d3d 0ba6 4a3d 95bf c23c 98f8 3b3c
00000060: 949e 24bc 8a0d 773c a423 5e3d 8d4d a33d
00000070: 68a8 5c3d a610 643d 9c38 953d 35f4 a03d
00000080: 3135 183e adbb aa3d 5c8b 153e b65d 163d
00000090: 63da 11bd 60a5 963d aab7 ce3d 6bf1 c1bb
000000a0: f4d0 973d 169f c0bc 2d1f 883d fe29 b4bc
000000b0: 042b ac3c cb81 34bb 2d95 14bd f7c1 27bd
000000c0: be0c 5abd 6b7a c4bc 0cb8 673c 397b c43d
000000d0: 0f5c c33c 88af 14bc fc6b 92bc ad82 01bd
000000e0: eb9b f83d 3083 1b3e 068b fd3d 04ea dd3b
000000f0: 832a 31be 6d2e aabd 96f8 df3d 24e0 c23d
00000100: bd9c 393d 7271 37be 080c 0bbe d0c1 30be
00000110: 124a 9dbd 5c7f 23b8 c541 fbbc ef15 363d
00000120: 4a2e 043e fb05 9e3d f8fa 4cbc 0b3b 313d
00000130: 7034 8abd 6e15 d2bd 3a81 1bbe 30e7 02be
00000140: 2745 cd3b 0a43 b23d 7876 3bbd 166a 693d
00000150: 615b 283d 4810 853d b406 f03d bbe7 dfbc
00000160: a50f cc3b 6559 a53d dcdd 913c c030 903c
00000170: 3b10 1dbd bba0 10bd a405 ed3d c3af 94bd
00000180: 9a80 56bd 3034 9ebd 4a3e 89bd 9d26 d9bd
00000190: ac0a be39 e108 443d 3c50 18bc 768e e7bc
000001a0: fcac b33c ffa3 5dbd b592 febd ff6c 22bc
000001b0: 6df9 1cbd 2ac9 b6bd 1150 05bb 8e08 623d
000001c0: c9cb 53bc ef50 e0bb 0280 94bd 45e7 9b3d
000001d0: 7d3e df3d 14cf e73d 9e1a 0d3d a1f1 303d
000001e0: 4b84 2bbd 9ddc cbbd 9e22 fabd cce6 23bd
000001f0: cfd7 43bd 19c5 123d 3bbd a7bd 5fae 9fbd
00000200: 72b3 a63b c5ef 5cbd 901f bebb 5584 a03d
00000210: 02e9 b6bc 2d3d 83bb 3f52 5abc 3b4f d8bb
00000220: de0a 86bd 02d5 8d3c 9412 a7bd b2ba a0bc
00000230: 4ed0 763c 9521 a33c 714f a3bb 4f09 3c3d
00000240: 3f96 493d 943e e7bc 4e50 783d f58f 273b
00000250: 52d9 5f3d 311f 9dbc 1b5b c43c 42ab f83d
00000260: a98c 6cbd 0dc7 16bd 043e 993c 558f 173e
00000270: f1ad e13b 3b2b dcbd 8c7f 15bc 8ef3 b8bc
00000280: aada 493e c7c5 c5bc 3578 d5bd 2ae0 843d
00000290: 2b30 f6bc dc89 2c3e b2e1 a8bd 2592 673c
000002a0: 1f1f 413c 4ad2 afbc 3bdf 973d 5e20 1b3a
000002b0: a7e5 1f3d ce66 533d b463 babd a655 013d
000002c0: 2c7b 14bc 8412 65bc 843e 993d c712 5f3d
000002d0: d75e a3bc 9b50 333d e8f8 2c3b 1224 3d3d
000002e0: 22f2 813d ff6d adbd a56d 143c 27b8 f3bd
000002f0: a665 2d3d 299d 113d 9477 05be e6c7 57bd
00000300: 87d0 8dbd aa79 37bd b369 a03d 7e46 e7bd
00000310: c785 cdbd 39f1 173d 6eee 953d a378 5a3c
00000320: 8594 b3ba 2db9 ea3d bd75 483d 9fab aa3d
00000330: 1417 023d 2a38 6a3d f393 083d 14b4 58bd
00000340: 2d18 76bd 983c 9ebd b204 c53d d0fa 103d
00000350: 76fd 52be 12c4 20be 8fba 6fbd ebe2 163e
00000360: 8b80 5dbd 2759 70be 330c 7abd 8810 4cbd
00000370: fadf d0bb 373f ecbd c161 193c a65f dfbb
00000380: 0e7f 9fbd 95ef e539 e616 6e3d 41c3 9dbd
00000390: 1957 603b f688 96bd df56 8b3c f9d3 e93c
000003a0: b561 dbbc e716 d9bb 7ca2 09bc 7aa3 c93d
000003b0: c8f1 513e 68dc adbd 2cc1 f0bd 67a1 33bd
000003c0: 6df4 aaba 66f1 0d3e b48a f5bc 5173 03be
000003d0: af64 643d 051a 863d bf8e 1f3e 8819 ec3c
000003e0: 9b3a 90bd f57c 30bd 8f30 0cbd 7648 aabd
000003f0: 6314 b63c 9067 503d 7ec9 e1bd c492 25bc

bias f4 [16]
-0.08408785 -0.06645548 0.064928286 0.021300044 -0.0010029117 -0.015369589 0.026525564 0.013235106
0.049922887 -0.05643917 -0.0050161774 0.00991864 -0.030617643 -0.016835328 -0.05702616 0.03147182
00000000: 4036 acbd d019 88bd 1ff9 843d 6e7d ae3c
00000010: 2274 83ba bbd0 7bbc 244c d93c 0fd8 583c
00000020: f17b 4c3d c22c 67bd bf5e a4bb cb81 223c
00000030: dad1 fabc 3eea 89bc 4394 69bd 98e8 003d

weight f4 [120, 400]
-0.009186206 -0.021177903 -0.03420509 0.009886538 0.0037623707 -0.0019768258 0.04710709 -0.023935236
0.055358954 0.0015020131 0.06297887 0.05658433 0.024902396 -0.026015418 -0.020826073 -0.015309134
-0.028968057 0.035392337 0.024305563 0.019959537 -0.021312542 0.027744662 -0.023815421 0.008841073
-0.041710693 -0.007914354 0.0051526423 0.022023333 -0.00412558 0.029969724 -0.029713906 0.019617647
0.028630372 0.019344764 0.00064811995 0.0032086999 -0.072100155 0.014102837 -0.027337622 -0.051742557
-0.037820585 -0.030454155 0.021653052 0.03873421 -0.010273905 -0.0069891065 0.011935553 0.063353784
0.0550034 0.019667683 0.012813139 0.03558987 0.05128913 0.05814997 0.04724709 -0.017465912
-0.007737488 0.036745954 0.0055708103 0.044026233 0.0482438 -0.06953479 -0.020376718 -0.0066778674
-0.04870945 -0.027780794 -0.04795917 0.030585874 -0.026349084 0.021341668 -0.033461433 -0.0009931681
-0.013704445 0.003534282 0.045752596 -0.030819481 -0.07765513 0.04319588 -0.06480472 0.03857727
-0.069086306 -0.019157004 -0.00871234 -0.015603516 0.02478771 -0.0346368 0.07921067 0.009296286
0.06625984 0.035541274 0.020383123 -0.07096671 -0.06880512 -0.033386722 -0.038856905 -0.007656116
0.02500923 -0.015343998 0.025315402 -0.049576644 0.029808216 -0.04247845 -0.029802566 0.026149543
-0.0016017328 -0.027414426 -0.055461448 -0.033344403 -0.041803185 -0.056108564 -0.054607976 -0.019142132
0.021419657 0.028548468 0.007993007 0.030223254 -0.04143888 0.052402798 0.069418594 0.025471639
-0.04391765 -0.016303616 0.039807934 -0.012120891 0.036124878 0.022951027 -0.012195761 -0.03480253
0.068275005 0.029262792 0.0054469686 -0.049811527 0.09335515 0.07148628 -0.027282447 -0.061610576
-0.036957353 -0.009760793 -0.03745253 -0.04378199 0.030790627 -0.034822684 -0.05139504 -0.040030926
-0.0133843515 -0.035767928 0.0065598707 0.032232173 -0.013248304 -0.034065325 -0.023134992 0.050680563
0.068192594 0.05252383 0.020118415 0.0455599 0.059937414 0.019823728 -0.00149626 0.0476463
0.023238832 0.022938643 -0.039880056 -0.022060297 -0.025707217 0.025285833 -0.020105017 0.025994547
0.04088312 -0.022215778 -0.005108135 0.032331835 -0.01514718 0.0027989417 -0.010014813 0.046183072
0.0037844158 0.01568259 0.02675084 0.0050307186 0.045666378 0.022537595 0.04608905 0.0016279642
0.022111977 0.050949935 -0.0011742623 -0.0026292072 0.0074917125 0.012125094 -0.04080526 0.013556599
0.060653497 -0.02045819 -0.034634653 -0.016869562 -0.033442203 0.016027844 0.004498916 0.021400182
-0.04236502 -0.0019822477 -0.015486759 -0.0061313747 -0.005527468 -0.020340253 0.0032496552 -0.019884536
-0.027652303 0.027615035 -0.072095245 0.0075422307 -0.023904052 -0.018585436 -0.008777306 -0.05819607
0.039257634 -0.0047851126 0.004415425 0.03177285 -0.030100768 -0.02788236 0.010649333 0.039028164
0.0028316518 -0.008312104 0.032031875 -0.029801592 -0.008277561 -0.0042293994 -0.02196518 0.008722681
0.00782163 -0.027119 -0.0014054452 0.017977934 -0.017915735 0.0034913595 0.081220575 0.09065317
-0.026101852 -0.04254092 0.012615755 0.037552536 -0.032818336 -0.045387715 0.0024707338 -0.015917344
-0.0428907 0.034350835 0.004826719 -0.010279128 0.010429574 0.047058105 0.0076094237 -0.04956185
00000000: be81 16bc 487d adbc a31a 0cbd 25fb 213c
00000010: 1b92 763b a28d 01bb 5df3 403d d413 c4bc
00000020: 12c0 623d 32df c43a 11fb 803d f8c4 673d
00000030: 1c00 cc3c 491e d5bc 719b aabc 29d3 7abc
00000040: 6b4e edbc 8ef7 103d 761c c73c 2f82 a33c
00000050: a497 aebc c648 e33c 8f18 c3bc 26da 103c
00000060: d5d8 2abd 35ab 01bc 7fd7 a83b 476a b43c
00000070: e02f 87bb 1183 f53c 946a f3bc 30b5 a03c
00000080: 3e8a ea3c e978 9e3c 98e6 293a 0d49 523b
00000090: 3fa9 93bd 960f 673c 26f3 dfbc 01f0 53bd
000000a0: c2e9 1abd fe7a f9bc be61 b13c c3a7 1e3d
000000b0: e153 28bc e004 e5bb 568d 433c a1bf 813d
000000c0: 3f4b 613d 1f1e a13c 33ee 513c afc6 113d
000000d0: 8d14 523d aa2e 6e3d 2a86 413d ac14 8fbc
000000e0: c18a fdbb ed82 163d 588b b63b da54 343d
000000f0: 4a9b 453d 4268 8ebd 13ed a6bc 03d2 dabb
00000100: 8f83 47bd 8c94 e3bc d670 44bd 3a8f fa3c
00000110: 09da d7bc b9d4 ae3c db0e 09bd 312d 82ba
00000120: 9c88 60bc 6a9f 673b 1367 3b3d 2379 fcbc
00000130: a709 9fbd 2aee 303d 56b8 84bd 3303 1e3d
00000140: 1f7d 8dbd 26ef 9cbc 34be 0ebc e4a5 7fbc
00000150: 980f cb3c 51df 0dbd 3439 a23d 734f 183c
00000160: 3db3 873d ba93 113d 82fa a63c ff56 91bd
00000170: b3e9 8cbd 84c0 08bd 6b28 1fbd 28e0 fabb
00000180: 28e0 cc3c 6465 7bbc 3f62 cf3c e110 4bbd
00000190: 5c30 f43c e2fd 2dbd 8324 f4bc 9137 d63c
000001a0: 3cf1 d1ba 3894 e0bc 8b2b 63bd 2494 08bd
000001b0: d139 2bbd 18d2 65bd 9dac 5fbd f6cf 9cbc
000001c0: 4778 af3c 7ade e93c 1af5 023c c296 f73c
000001d0: d1bb 29bd 51a4 563d 562b 8e3d e6a9 d03c
000001e0: fee2 33bd 298f 85bc a50d 233d b496 46bc
000001f0: aef7 133d cb03 bc3c bbd0 47bc 198d 0ebd
00000200: c4d3 8b3d 86b8 ef3c 7c7c b23b 2c07 4cbd
00000210: fc30 bf3d 6667 923d 707f dfbc 5f5b 7cbd
00000220: 9860 17bd bceb 1fbc d367 19bd be54 33bd
00000230: a03c fc3c 3ba2 0ebd 9b83 52bd 78f7 23bd
00000240: 0a4a 5bbc 6481 12bd 2ff4 d63b e205 043d
00000250: 6a0f 59bc 1588 0bbd 9885 bdbc 6c96 4f3d
00000260: 8fa8 8b3d 3a23 573d 60cf a43c 059d 3a3d
00000270: ef80 753d 5f65 a23c 281e c4ba c428 433d
00000280: 5d5f be3c d2e9 bb3c 4559 23bd ccb7 b4bc
00000290: f197 d2bc 3c24 cf3c 47b3 a4bc 84f2 d43c
000002a0: 0f75 273d ddfd b5bc 2462 a7bb 636e 043d
000002b0: e12b 78bc 736e 373b 2c15 24bc 762a 3d3d
000002c0: f603 783b c678 803c 9424 db3c bad8 a43b
000002d0: ab0c 3b3d c3a0 b83c dfc7 3c3d 6a61 d53a
000002e0: 2d24 b53c e1b0 503d b4e9 99ba c74e 2cbb
000002f0: 0a7d f53b 55a8 463c 6b23 27bd 7f1c 5e3c
00000300: cd6f 783d ef97 a7bc 11dd 0dbd 0932 8abc
00000310: b1fa 08bd d34c 833c a56b 933b 6f4f af3c
00000320: f186 2dbd 99e8 01bb 2dbc 7dbc b3e9 c8bb
00000330: c31f b5bb 9aa0 a6bc 2bf8 543b e5e4 a2bc
00000340: 1587 e2bc ed38 e23c aca6 93bd d124 f73b
00000350: 6ed2 c3bc 7c40 98bc b1ce 0fbc 015f 6ebd
00000360: 9dcc 203d 6fcc 9cbb 45af 903b 3f24 023d
00000370: e395 f6bc 8c69 e4bc 8a7a 2e3c ffdb 1f3d
00000380: 3c93 393b 7e2f 08bc db33 033d 7822 f4bc
00000390: 9b9e 07bc c696 8abb 52f0 b3bc 93e9 0e3c
000003a0: 4b26 003c aa28 debc ea36 b8ba 7646 933c
000003b0: 05c4 92bc 4bcf 643b f956 a63d 5fa8 b93d
000003c0: 8dd3 d5bc 633f 2ebd 50b2 4e3c b0d0 193d
000003d0: 856c 06bd 78e8 39bd 09ec 213b 1765 82bc
000003e0: 29ae 2fbd 76b3 0c3d 7429 9e3b ca69 28bc
000003f0: cee0 2a3c 00c0 403d 7958 f93b 5e01 4bbd

bias f4 [120]
0.057121627 0.035751063 1.2145146e-05 -0.039363205 -0.0486393 -0.03994887 0.04849162 0.03285683
0.03552465 -0.015183313 0.0030338871 0.0444649 0.028719163 0.013405415 -0.014581992 -0.006053511
-0.014226558 0.02810565 -0.010751025 -0.047624663 -0.020481743 -0.022219023 -0.035406783 -0.013006326
0.034077212 -0.048549265 -0.01144941 -0.009257991 0.003723458 -0.035662215 0.008986603 0.022735007
0.012676375 0.024938535 0.007544475 -0.014415335 -0.0005607307 0.013531009 0.024589816 -0.014799133
0.031804163 0.0202197 -0.023565708 0.030649917 -0.033039365 -0.018557956 -0.049011596 0.045680836
-0.00059112196 0.026898008 -0.02950382 -0.042176235 -0.016200481 0.014668443 -0.049106754 -0.012210568
0.0012948664 -0.018367186 -0.047811676 -6.1190796e-05 -0.041390445 0.05028897 -0.04541479 0.014968627
0.018364808 0.017950457 0.017334418 -0.003830777 0.026436996 -0.015139803 -0.013185995 -0.0026035623
-0.013345548 0.021147074 0.04790064 0.027343176 0.027715676 -0.024429064 -0.013781527 0.021901045
0.011419468 -0.01640911 -0.0383106 0.010264614 0.027066834 -0.04130897 0.049075127 -0.04324084
0.037792515 0.032543607 -0.014888355 0.051235445 0.014471193 -0.004054357 0.016996397 -0.04392816
0.048312254 -0.021567205 0.024444012 0.0040774657 0.015116636 -0.023422943 -0.03239714 0.040938217
0.047551673 -0.02607625 0.058424197 0.00019229653 0.036257405 -0.0056738704 0.031389136 0.04112829
0.02398188 -0.03666874 -0.02623808 0.007126119 -0.046475552 0.034645084 0.048792075 0.01127856
00000000: 5ef8 693d b56f 123d 01c3 4b37 503b 21bd
00000010: 013a 47bd 6da1 23bd 269f 463d e294 063d
00000020: 4c82 113d 6ec3 78bc 2ed4 463b d420 363d
00000030: 7344 eb3c 63a2 5b3c 4fe9 6ebc 885c c6bb
00000040: 8216 69bc d23d e63c 1125 30bc 1412 43bd
00000050: 54c9 a7bc ab04 b6bc b406 11bd 7c18 55bc
00000060: 8c94 0b3d 98db 46bd 4e96 3bbc d4ae 17bc
00000070: 4205 743b 8b12 12bd 8b3c 133c c43e ba3c
00000080: 92b0 4f3c e64b cc3c a537 f73b 4c2e 6cbc
00000090: 00fe 12ba 2ab1 5d3c 9570 c93c 1078 72bc
000000a0: 1545 023d c9a3 a53c df0c c1bc 8915 fb3c
000000b0: 4954 07bd db06 98bc 62c0 48bd d41b 3b3d
000000c0: 86f5 1aba 3659 dc3c ffb1 f1bc fdc0 2cbd
000000d0: dfb6 84bc e953 703c 2a24 49bd d60e 48bc
000000e0: 82b8 a93a c876 96bc 2dd6 43bd 8f53 80b8
000000f0: 0789 29bd cffb 4d3d dc04 3abd f93e 753c
00000100: cb71 963c d60c 933c e900 8e3c c60d 7bbb
00000110: 6692 d83c f00c 78bc 120a 58bc 87a0 2abb
00000120: 49a7 5abc a13c ad3c 7633 443d ccfe df3c
00000130: fc0b e33c 761f c8bc eacb 61bc d269 b33c
00000140: b818 3b3c 666c 86bc 93eb 1cbd e92c 283c
00000150: 44bb dd3c 9833 29bd 0003 493d 4f1d 31bd
00000160: 53cc 1a3d 724c 053d 49ee 73bc 42dc 513d
00000170: 9518 6d3c 69da 84bb 073c 8b3c 04ee 33bd
00000180: 12e3 453d b5ad b0bc cf3e c83c 439c 853b
00000190: c4ab 773c 79e1 bfbc ddb2 04bd d5ae 273d
000001a0: 8bc5 423d dc9d d5bc 364e 6f3d 35a3 4939
000001b0: a582 143d e0eb b9bb e591 003d 2376 283d
000001c0: a675 c43c f631 16bd 3ef1 d6bc 3882 e93b
000001d0: 265d 3ebd 01e8 0d3d 33da 473d b6c9 383c

weight f4 [84, 120]
-0.011968938 0.012611055 -0.024540586 0.0226268 -0.035757832 -0.031759996 -0.044868287 -0.009961723
-0.02412126 -0.031238504 -0.05144796 -0.086072974 0.036117356 -0.08132697 -0.017851003 -0.049572494
0.09448336 0.08758062 0.01273459 0.05014473 0.0136358915 0.00086411193 -0.07244972 0.017148715
0.08803519 0.0661827 -0.044861875 -0.0566988 0.0337955 0.0236657 0.009414874 0.05325592
0.021252433 0.08607629 -0.014890178 0.10130203 -0.060161717 -0.1025801 -0.08520597 -0.040959287
-0.074051164 0.0059940997 -0.07149486 -0.02382587 -0.044685364 0.03959693 -0.08827332 0.016666632
0.06803894 -0.040638957 0.06077515 -0.05548598 0.08462261 0.10612086 -0.021349637 -0.00255559
-0.096898645 0.044073116 -0.03082664 -0.052390918 0.10843275 0.08065041 -0.056269612 -0.004326698
-0.008692309 0.020342028 -0.06333861 -0.04767223 0.028106451 -0.0027820608 0.05081618 -0.045136545
-0.00069410936 0.083268724 -0.076755166 -0.055010438 0.01599823 0.078067444 0.023471829 -0.099634446
-0.06634905 0.047741417 0.0223566 -0.12000973 0.06996601 0.002838041 0.05265252 -0.055653118
-0.06752902 -0.00056605897 0.04643667 -0.1003697 -0.037374426 -0.089969784 0.0490257 0.026509214
0.011499064 0.08527055 -0.05029671 -0.049903654 0.013406832 -0.0427343 0.022421239 -0.053925667
-0.020000162 -0.08137931 -0.0017060323 -0.023735717 0.0509707 0.07251988 -0.044112027 0.10062137
0.047341395 -0.063934684 0.051646702 0.09099869 0.0031316555 0.033167716 -0.014232877 -0.06863458
0.06360267 0.033981983 -0.026378587 0.054054722 -0.033011016 -0.0048987786 -0.0784147 0.059009615
-0.02775615 -0.07557825 0.03738323 0.030410357 0.1056317 0.02386364 0.104125515 0.1055679
-0.024871562 -0.007098295 0.03596244 -0.08628809 -0.010563865 0.011464627 -0.043327283 -0.015541569
-0.0024826701 -0.024773981 0.055296406 -0.08638042 0.06104411 0.04411537 0.051376466 0.047903053
-0.08426731 -0.013004319 0.09036126 -0.039749965 0.13338846 0.040729508 -0.05753833 -0.04025084
0.047362924 -0.10214228 -0.004886185 -0.05906852 0.0325096 -0.039370604 -0.04180517 0.054940306
0.015927559 -0.110648476 0.036578327 0.016949298 -0.06705039 -0.06557873 0.0015950375 -0.11997309
0.015517028 0.09926543 0.09212925 -0.037614048 0.021078844 -0.0002776097 0.04420218 -0.101833105
0.08746978 0.02471505 -0.030645728 0.039604213 -0.05096073 -0.09893883 0.068099886 0.06272431
-0.010587842 0.029431928 -0.09488099 -0.07491877 0.027674155 -0.06316673 0.003254576 0.03955929
0.082456954 -0.039957702 -0.018790178 -0.017669398 -0.059428625 -0.05350793 -0.08099687 0.015788408
0.011572464 0.08141403 -0.16504362 0.061553556 0.03559723 0.11574724 0.05388096 -0.06547694
0.05422766 0.02887174 -0.06669518 0.048047684 0.06430123 -0.1009826 -0.07273567 0.044832632
-0.035565726 -0.09463115 0.01297911 -0.0708708 0.05436597 -0.08444721 0.055832077 -0.027687378
0.024663484 0.043354888 0.0942731 -0.07900679 -0.012328711 0.072115175 -0.020057289 -0.02699436
0.06668071 -0.1311525 0.040422797 -0.008781594 -0.07602509 0.015638974 0.0111938305 0.030343274
0.08981232 0.01937452 0.06750757 -0.03234744 -0.02143799 0.008680713 0.09348668 -0.0650074
00000000: 5d19 44bc 999e 4e3c 5709 c9bc d75b b93c
00000010: ce76 12bd c516 02bd cfc7 37bd 7f36 23bc
00000020: f399 c5bc e4e7 ffbc 19bb 52bd 0747 b0bd
00000030: cbef 133d c18e a6bd 443c 92bc 870c 4bbd
00000040: 7e80 c13d 785d b33d bea4 503c 8f64 4d3d
00000050: 1369 5f3c 9285 623a 8560 94bd 767b 8c3c
00000060: cb4b b43d cc8a 873d 16c1 37bd 003d 68bd
00000070: 266d 0a3d 92de c13c d840 1a3c e122 5a3d
00000080: 9519 ae3c c448 b03d eff5 73bc 7077 cf3d
00000090: 226c 76bd 8415 d2bd 7880 aebd edc4 27bd
000000a0: 23a8 97bd 276a c43b e66b 92bd 792e c3bc
000000b0: 0008 37bd 6430 223d a4c8 b4bd 7688 883c
000000c0: 0058 8b3d 0975 26bd 5def 783d 4445 63bd
000000d0: 9e4e ad3d e555 d93d 6fe5 aebc af7b 27bb
000000e0: cc72 c6bd 0386 343d 2688 fcbc dc97 56bd
000000f0: fd11 de3d 0b2c a53d f77a 66bd f9c6 8dbb
00000100: 306a 0ebc 53a4 a63c acb7 81bd f543 43bd
00000110: 803f e63c 3c53 36bb a024 503d 19e1 38bd
00000120: e4f4 35ba cb88 aa3d d031 9dbd a052 61bd
00000130: b80e 833c d3e1 9f3d fe47 c03c 250d ccbd
00000140: 03e2 87bd 818c 433d 3025 b73c a9c7 f5bd
00000150: 574a 8f3d 6dfe 393b 2baa 573d 86f4 63bd
00000160: a84c 8abd 9363 14ba 6134 3e3d a18e cdbd
00000170: ed15 19bd 1442 b8bd 2ccf 483d da29 d93c
00000180: 9266 3c3c 53a2 ae3d ec03 4ebd c667 4cbd
00000190: 54a8 5b3c 290a 2fbd bfac b73c 29e1 5cbd
000001a0: 61d7 a3bc 32aa a6bd f29c dfba 6871 c2bc
000001b0: a7c6 503d 4e85 943d d0ae 34bd 9412 ce3d
000001c0: 0de9 413d 30f0 82bd 7e8b 533d 855d ba3d
000001d0: 763c 4d3b dfda 073d 0331 69bc 4990 8cbd
000001e0: 1e42 823d b130 0b3d e817 d8bc 7c68 5d3d
000001f0: 8f36 07bd ef85 a0bb e397 a0bd 11b4 713d
00000200: de60 e3bc c5c8 9abd 281f 193d 241f f93c
00000210: 6f55 d83d ae7d c33c c23f d53d fc33 d83d
00000220: 72bf cbbc d098 e8bb 5a4d 133d cfb7 b0bd
00000230: 1014 2dbc 22d6 3b3c f377 31bd 11a2 7ebc
00000240: 4bb4 22bb cef2 cabc 7c7e 623d 38e8 b0bd
00000250: 6409 7a3d 51b2 343d 2170 523d fe35 443d
00000260: 5794 acbd 1110 55bc 530f b93d dcd0 22bd
00000270: fc96 083e fcd3 263d 50ad 6bbd 11de 24bd
00000280: a0ff 413d f92f d1bd 4a1c a0bb d5f1 71bd
00000290: c928 053d 1243 21bd e63b 2bbd 1609 613d
000002a0: 837a 823c ab9b e2bd 28d3 153d 41d9 8a3c
000002b0: b751 89bd 244e 86bd 9410 d13a 74b4 f5bd
000002c0: 223b 7e3c ac4b cb3d 43ae bc3d 3011 1abd
000002d0: 8aad ac3c 258c 91b9 580d 353d e08d d0bd
000002e0: 5b23 b33d 3777 ca3c c00c fbbc 0738 223d
000002f0: 33bc 50bd 71a0 cabd f477 8b3d 9a75 803d
00000300: a178 2dbc 3a1b f13c f750 c2bd 036f 99bd
00000310: e9b4 e23c 8f5d 81bd b94a 553b ec08 223d
00000320: 31df a83d b0aa 23bd dced 99bc 6abf 90bc
00000330: 6e6b 73bd 222b 5bbd b0e1 a5bd b156 813c
00000340: 6f9a 3d3c 66bc a63d 3201 29be 951f 7c3d
00000350: 67ce 113d e40c ed3d 48b2 5c3d c618 86bd
00000360: d31d 5e3d 6d84 ec3c 7c97 88bd a6cd 443d
00000370: 5db0 833d f7cf cebd 70f6 94bd 6ca2 373d
00000380: 5ead 11bd facd c1bd 55a6 543c b624 91bd
00000390: daae 5e3d a9f2 acbd 2db0 643d a4d0 e2bc
000003a0: 130b ca3c e594 313d 4112 c13d 50ce a1bd
000003b0: 5dfe 49bc 1fb1 933d 2f4f a4bc 4723 ddbc
000003c0: e58f 883d d74c 06be 6092 253d ade0 0fbc
000003d0: 0bb3 9bbd 4e1d 803c 5466 373c 7592 f83c
000003e0: 86ef b73d 50b7 9e3c 6941 8a3d c07e 04bd
000003f0: b99e afbc 8d39 0e3c f275 bf3d 9a22 85bd

bias f4 [84]
0.00090125104 0.0042764344 0.073897526 -0.020598404 -0.053478703 -0.014991222 0.1073859 -0.07283811
0.06745323 0.07563834 -0.0069382656 -0.063009776 0.0009353231 0.09875163 0.0767505 0.026780767
0.06086949 -0.06034616 -0.017976265 -0.063499555 -0.08226577 0.07382294 0.08873551 -0.08479884
-0.008969937 -0.046167035 0.005215999 -0.02896339 -0.06567127 0.027497 -0.046323452 -0.035494667
-0.07391668 0.01755568 0.10813587 0.061744567 0.087669685 0.049614955 0.057362564 0.07588904
-0.032424893 0.07364667 -0.03564569 -0.02114848 0.07514283 -0.08568322 0.05676839 0.05206422
0.04262339 0.08426663 0.011639385 0.07621008 -0.04427445 0.056770965 0.048478276 0.063739344
-0.017491722 0.07178448 -0.027027462 -0.016921552 0.04925363 0.083333 0.084652565 -0.047281343
-0.016033614 -0.054526187 -0.058226597 -0.06088084 0.0014592371 0.09301643 -0.06535902 0.08261187
-0.07600439 0.050537065 0.019128934 -0.0059966734 0.046458773 -0.032110635 -0.061942372 -0.024209214
0.029704953 -0.0837595 0.002122215 0.0771507
00000000: ef41 6c3a 5521 8c3b 9657 973d fcbd a8bc
00000010: 7c0c 5bbd be9d 75bc 24ed db3d 262c 95bd
00000020: eb24 8a3d 46e8 9a3d 645a e3bb 450b 81bd
00000030: 7930 753a 4b3e ca3d 5e2f 9d3d 5763 db3c
00000040: 4952 793d 892d 77bd f642 93bc 0e0c 82bd
00000050: f57a a8bd 7b30 973d f7ba b53d 04ab adbd
00000060: a5f6 12bc a519 3dbd f9ea aa3b a244 edbc
00000070: a97e 86bd 6341 e13c a9bd 3dbd db62 11bd
00000080: a161 97bd eed0 8f3c 5776 dd3d dfe7 7c3d
00000090: 2a8c b33d 0d39 4b3d 02f5 6a3d b76b 9b3d
000000a0: f7cf 04bd 11d4 963d 3701 12bd 943f adbc
000000b0: 7ce4 993d af7a afbd f985 683d 4b41 553d
000000c0: dd95 2e3d fc93 ac3d 1eb3 3e3c 0814 9c3d
000000d0: 2059 35bd ac88 683d 2891 463d c689 823d
000000e0: cd4a 8fbc be03 933d b268 ddbc 119f 8abc
000000f0: 2dbe 493d 7eaa aa3d 535e ad3d 15aa 41bd
00000100: ed58 83bc da56 5fbd 037f 6ebd 305e 79bd
00000110: df43 bf3a 667f be3d f3da 85bd 6930 a93d
00000120: 31a8 9bbd f4ff 4e3d 48b4 9c3c be7f c4bb
00000130: 8e4b 3e3d 7186 03bd 49b7 7dbd 6752 c6bc
00000140: cd57 f33c 1a8a abbd dc14 0b3b 3001 9e3d

weight f4 [10, 84]
-0.03305643 -0.17262027 -0.2550362 0.019112742 -0.23325877 0.022106625 -0.08042309 0.103986986
-0.1567771 -0.18636234 0.080579415 0.09717547 0.0511928 -0.05388481 -0.10078383 -0.03783058
0.032544337 0.06520738 0.12553836 -0.096408434 -0.09054857 -0.06832269 0.14373872 0.024908569
-0.08221325 0.18804185 0.15671438 0.022777062 -0.034568843 -0.19614588 -0.07453589 0.078939974
0.18270274 -0.07031491 0.16140628 0.120582245 -0.10823069 -0.0042296653 -0.022737652 0.04831476
0.062548995 -0.0004863818 -0.021914434 0.08474993 0.05267836 0.09451603 -0.21289083 0.08749177
0.10327548 0.10484267 -0.060009137 0.015969638 -0.032975186 0.10251078 -0.118404925 -0.103091866
-0.056286555 0.040295385 0.008530506 -0.22088961 0.18417902 -0.07825171 -0.09405657 0.037786018
-0.020438874 -0.084490664 -0.093307994 -0.14607757 0.068270504 -0.19196755 0.061740085 0.27568033
0.17189169 -0.1967862 -0.081978075 0.019368203 0.10967813 0.066121 -0.07026964 0.0073796813
0.106084995 0.02130844 -0.009534328 0.08973605 -0.036950506 -0.12632953 0.1387469 0.1002186
-0.101926826 -0.12719518 0.30761933 0.11445919 -0.12727216 0.11057701 -0.0042627407 0.08775104
0.063033625 0.21193375 -0.07131272 0.16701712 -0.0838216 -0.0069257417 -0.20193872 0.07338059
0.02858796 -0.101386786 -0.043270905 0.10777091 0.12531225 0.061623696 -0.109555334 0.028204052
0.040897317 -0.111861475 0.037999745 0.06353753 -0.044758532 0.030700786 0.26793382 0.045209013
0.024989313 -0.14149298 0.008300856 0.16156405 -0.20247538 0.1360371 -0.059559695 -0.010223418
0.07393392 -0.17997718 0.18145329 0.23109002 0.055135448 0.14358833 -0.12280191 0.029382495
0.0950147 -0.16073649 0.053308647 0.059122693 0.16147257 -0.2344048 0.016733048 -0.0010531562
0.020726526 -0.010245914 0.010363382 0.03731687 -0.09839817 -0.054490495 -0.13328464 -0.019415166
-0.07413555 0.22810607 0.12605272 0.13600218 0.14377412 0.10399192 0.08352112 -0.08877717
0.042400192 -0.0818884 -0.12750065 0.06078264 0.13235368 0.0498065 -0.13538854 -0.24334157
0.05262369 0.1343996 -0.1701128 0.0697999 -0.12751313 0.019865865 0.10872768 -0.11328388
0.09450862 0.10018349 0.0009854229 0.14402826 0.1395068 0.0854912 -0.0852443 -0.19592685
0.0057590907 0.11639287 -0.0834567 -0.045984454 0.07595566 0.17773803 -0.08229429 -0.16611184
-0.053594135 -0.16408297 0.010016674 -0.03718552 0.021051189 -0.09991387 0.14437403 -0.10363093
-0.0034369158 -0.015913205 -0.26408303 0.14694487 0.027661838 -0.22580121 -0.037394226 0.056033365
-0.0018629357 0.019329773 -0.08305721 -0.0985793 -0.012774477 0.012202001 -0.2552726 -0.16269016
0.09237795 0.16669734 0.13197158 -0.12505691 -0.06357574 -0.08403106 0.07057032 0.16948618
-0.09862779 0.15441884 -0.06929024 -0.03055404 -0.16623498 0.02817316 0.12378159 0.08034804
0.12763022 -0.10465583 -0.11351355 0.05026099 0.06720483 -0.2731912 -0.09819782 0.15333067
0.1434478 0.0687164 -0.009349204 0.22671287 0.052465748 0.10356902 0.078436784 0.018219847
0.0055969777 -0.091033325 -0.11238911 -0.1357741 -0.04814391 0.24491706 0.063532926 0.05998074
00000000: 2e66 07bd 5ec3 30be 1b94 82be 5392 9c3c
00000010: 63db 6ebe f418 b53c dcb4 a4bd 21f7 d43d
00000020: 2d8a 20be c5d5 3ebe d206 a53d ef03 c73d
00000030: 8baf 513d 52b6 5cbd c167 cebd 3df4 1abd
00000040: 364d 053d 728b 853d 218d 003e c971 c5bd
00000050: 8771 b9bd c4ec 8bbd 3e30 133e 0e0d cc3c
00000060: 6c5f a8bd 0b8e 403e bc79 203e f696 ba3c
00000070: 0f98 0dbd 77da 48be 46a6 98bd 48ab a13d
00000080: 6d16 3b3e 4301 90bd b047 253e d3f3 f63d
00000090: 0da8 ddbd 0199 8abb 5044 babc b3e5 453d
000000a0: b019 803d 0f01 ffb9 e685 b3bc 5f91 ad3d
000000b0: 44c5 573d 9f91 c13d 0e00 5abe e32e b33d
000000c0: 1882 d33d c1b7 d63d 24cc 75bd c2d2 823c
000000d0: fd10 07bd 2cf1 d13d 487e f2bd d421 d3bd
000000e0: bb8c 66bd c60c 253d 89c3 0b3c e330 62be
000000f0: 6d99 3c3e 6f42 a0bd bba0 c0bd 83c5 1a3d
00000100: 6d6f a7bc 7109 adbd 4318 bfbd 5c95 15be
00000110: 68d1 8b3d 2493 44be 2ce3 7c3d f925 8d3e
00000120: 6004 303e 5282 49be 1fe4 a7bd 11aa 9e3c
00000130: ed9e e03d 726a 873d 87e9 8fbd 41d1 f13b
00000140: 1743 d93d 0a8f ae3c df35 1cbc 89c7 b73d
00000150: 6a59 17bd 875c 01be ab13 0e3e 693f cd3d
00000160: 03bf d0bd 743f 02be 4880 9d3e 9469 ea3d
00000170: a253 02be 3376 e23d 76ae 8bbb d1b6 b33d
00000180: c617 813d 2905 593e 670c 92bd 8906 2b3e
00000190: a9aa abbd 55f1 e2bb 06c9 4ebe 9048 963d
000001a0: 4c31 ea3c e0a3 cfbd d53c 31bd ffb6 dc3d
000001b0: db51 003e 2169 7c3d 8c5e e0bd 2f0c e73c
000001c0: f283 273d a117 e5bd 9fa5 1b3d f71f 823d
000001d0: b954 37bd 3780 fb3c 9f2e 893e 162d 393d
000001e0: 63b6 cc3c 89e3 10be 5000 083c 0c71 253e
000001f0: b555 4fbe 4f4d 0b3e def4 73bd 1f80 27bc
00000200: ab6a 973d f04b 38be e4ce 393e dda2 6c3e
00000210: b5d5 613d d208 133e 917f fbbd 8fb3 f03c
00000220: 1197 c23d 1b98 24be 2b5a 5a3d a32a 723d
00000230: 1159 253e d007 70be bf13 893c 0f0a 8aba
00000240: adca a93c 7ade 27bc 2dcb 293c 93d9 183d
00000250: fb84 c9bd 6d31 5fbd c57b 08be 8e0c 9fbc
00000260: 61d4 97bd a394 693e f713 013e 2844 0b3e
00000270: 8639 133e b7f9 d43d 1f0d ab3d ced0 b5bd
00000280: d3ab 2d3d 1bb5 a7bd 888f 02be 38f7 783d
00000290: b987 073e e701 4c3d 4ba3 0abe 882e 79be
000002a0: f08b 573d 0ca0 093e 0d32 2ebe 40f3 8e3d
000002b0: cd92 02be bdbd a23c 9eac de3d 6101 e8bd
000002c0: bc8d c13d 002d cd3d 4e29 813a 257c 133e
000002d0: dfda 0e3e 0316 af3d 9094 aebd 0ca1 48be
000002e0: c1b6 bc3b 635f ee3d 59eb aabd 325a 3cbd
000002f0: a48e 9b3d f500 363e e989 a8bd 3919 2abe
00000300: 8685 5bbd 5e05 28be fa1c 243c d84f 18bd
00000310: 8b73 ac3c a59f ccbd c9d6 133e 743c d4bd
00000320: e13d 61bb 695c 82bc e435 87be b778 163e
00000330: 149b e23c 6f38 67be b02a 19bd 3e83 653d
00000340: c02d f4ba 7959 9e3c e619 aabd f2e3 c9bd
00000350: 0a4c 51bc e7ea 473c 17b3 82be 4098 26be
00000360: a730 bd3d b5b2 2a3e 8f23 073e eb0e 00be
00000370: ff33 82bd 7a18 acbd 2c87 903d c98d 2d3e
00000380: 5efd c9bd f91f 1e3e 0be8 8dbd 774c fabc
00000390: 8139 2abe 66cb e63c 3481 fd3d 838d a43d
000003a0: 7fb1 023e cc55 d6bd cb79 e8bd 78de 4d3d
000003b0: b0a2 893d b8df 8bbe f01b c9bd b702 1d3e
000003c0: fbe3 123e 2fbb 8c3d 672d 19bc 6b27 683e
000003d0: 53e6 563d ff1b d43d 77a3 a03d ca41 953c
000003e0: da66 b73b ae6f babd 432c e6bd 5e08 0bbe
000003f0: 8c32 45bd 8acb 7a3e 8d1d 823d 5dae 753d

bias f4 [10]
-0.10700356 0.16004047 -0.09515981 -0.13176994 0.03673004 0.01195741 0.03156294 0.010980394
-0.10505268 0.111758895
00000000: af24 dbbd a6e1 233e 25e3 c2bd b3ee 06be
00000010: 3d72 163d 03e9 433c 2448 013d 1ce7 333c
00000020: dc25 d7bd d9e1 e43d
